chatbot-deployment-main/data.pth (torch, 5695 bytes, 6 tensors)

l1.weight f4 [8, 67]
0.22517283 -0.15754168 0.18962254 0.19379058 0.111126125 -0.060003083 -0.56459457 0.3662177
0.41032988 0.28205478 0.2212589 0.42407978 -0.23550679 0.103998154 -0.12555644 -0.19225216
-0.20725015 0.41030097 -0.59467655 -0.14172333 0.67369044 0.20250838 0.5067158 0.40261573
0.549536 0.09712901 0.053552557 0.11452167 0.1491947 -0.13034391 -0.1685371 -0.115795515
-0.34823748 -0.34200266 0.070769265 -0.15123631 -0.25684646 0.19944547 -0.08567153 0.24227801
-0.1516244 -0.12516016 -0.062027443 0.28003246 0.45623764 -0.019817837 0.34056175 -0.15982799
-0.21990311 -0.16007426 -0.17608106 1.421939 0.016475914 -0.12266432 0.49444765 0.071202815
-0.23336284 0.3271878 -0.1410528 -0.05825013 -0.13949472 -0.25120887 -0.056861263 -0.69644165
0.23543578 -0.0681109 -0.029926226 0.7764668 0.7356529 0.4189411 -0.16083165 -0.24285318
0.0022199352 0.68085414 0.23744875 0.15922388 0.4277488 0.17311731 -0.34146652 -0.083382465
-0.07896255 -0.013226941 0.6272422 -0.06865166 -0.2378001 0.50141007 -0.36126453 -0.57928544
0.4732719 -0.5792826 -0.57976615 -0.5794616 0.05977358 -0.7442933 0.17323488 -0.19052827
-0.27091584 0.6102906 -0.055394188 0.6961615 0.39283425 0.07893279 0.80656874 -0.05582638
0.34576815 0.06801913 0.2169294 0.6342354 -0.26128992 -0.051199004 0.2606492 0.29676816
-0.018183127 0.36963034 0.27639696 -0.43336454 -0.035942182 0.71015596 -0.17470713 0.26174676
0.53627604 1.4020665 0.5928741 -0.05349314 -0.22762032 -0.016803117 -0.117974386 -0.4744755
-0.13103928 -0.27633137 -0.6199975 0.40631878 -0.10245955 0.40794063 -0.39298636 0.55874443
0.522314 -0.23264852 0.13313411 -0.11854687 0.66637903 0.37124616 0.44170678 0.6236105
0.4599157 -0.0224803 0.84055626 0.11415272 0.8126307 0.5961007 0.48080683 -0.02272021
0.45781988 -0.36477172 -0.19260558 -0.13072377 -0.12325672 -0.1915246 -0.15149824 0.12219516
0.31507185 0.4150634 0.40201265 -0.459934 0.6265834 -0.101571485 0.6055017 0.5126942
-0.15308802 -0.86699533 0.65924096 -0.107342355 0.2806525 0.5567301 0.5573037 0.58313656
-0.04372129 0.69646245 0.25987086 0.18709916 0.46639258 0.53136563 -0.80407405 0.63409275
0.41587 -0.896237 0.827126 0.6139186 -0.8357941 -0.23438372 0.54811585 -0.17020172
0.6351619 -0.044994242 -0.19396451 0.57620126 -0.22215281 0.9204627 0.3208024 -0.09472666
0.10082525 0.5647594 0.3256693 0.26247522 0.31108055 0.320764 -0.04999192 -0.57539093
0.42186767 0.30493224 0.42130867 0.24675626 0.081604086 -0.19598204 0.038305912 -0.26846284
0.11320605 0.20060962 0.19532306 -0.61048824 -0.16913402 0.29015622 0.4707804 0.26042694
0.30301592 0.21837117 0.043477822 0.38177195 -0.11186421 0.24700801 -0.280086 0.16238475
-0.04203488 0.11046842 -0.37784377 -0.037446566 -0.49217355 -0.10048546 0.36162612 0.668046
0.21572427 0.25993818 0.1948567 -0.00045322167 0.41049752 0.41095275 0.6829516 0.4046303
-0.2851627 -0.34006956 -0.1595832 0.31751963 1.0974954 0.02952609 0.44531053 1.2098676
00000000: b593 663e 9b52 21be 692c 423e 0a71 463e
00000010: 1896 e33d cbc5 75bd 4589 10bf e380 bb3e
00000020: c216 d23e 7c69 903e b191 623e fc20 d93e
00000030: b128 71be fcfc d43d de91 00be c0dd 44be
00000040: 6239 54be f812 d23e b93c 18bf ec1f 11be
00000050: fa76 2c3f 5b5e 4f3e 20b8 013f a623 ce3e
00000060: 64ae 0c3f 93eb c63d ed59 5b3d 568a ea3d
00000070: 7fc6 183e e078 05be fd94 2cbe 3326 edbd
00000080: 2f4c b2be f91a afbe 7aef 903d b1dd 1abe
00000090: 6181 83be 6f3b 4c3e 8e74 afbd ba17 783e
000000a0: 6d43 1bbe fc29 00be 7d10 7ebd 6a60 8f3e
000000b0: fb97 e93e 0459 a2bc 1c5e ae3e f3a9 23be
000000c0: 482e 61be 82ea 23be 984e 34be 1902 b63f
000000d0: 7ff8 863c 6e37 fbbd 3e28 fd3e c8d2 913d
000000e0: abf6 6ebe 2985 a73e 2570 10be b097 6ebd
000000f0: b4d7 0ebe 739e 80be 5be7 68bd 004a 32bf
00000100: 1416 713e ba7d 8bbd d827 f5bc 87c6 463f
00000110: c053 3c3f 737f d63e 0db1 24be 81ae 78be
00000120: 557c 113b 754c 2e3f c425 733e 960b 233e
00000130: e401 db3e aa45 313e b3d4 aebe 6dc4 aabd
00000140: 1eb7 a1bd d0b5 58bc f292 203f 3e99 8cbd
00000150: df81 73be 695c 003f aaf7 b8be 0d4c 14bf
00000160: b250 f23e dd4b 14bf 8e6b 14bf 9857 14bf
00000170: 24d5 743d 018a 3ebf 7c64 313e d819 43be
00000180: 7bb5 8abe 013c 1c3f 04e5 62bd a437 323f
00000190: 9221 c93e 84a7 a13d 4a7b 4e3f 34aa 64bd
000001a0: 8608 b13e 9d4d 8b3d be22 5e3e 405d 223f
000001b0: cbc7 85be 0cb6 51bd d073 853e fff1 973e
000001c0: c8f4 94bc 3040 bd3e e783 8d3e f5e1 ddbe
000001d0: 1c38 13bd c8cc 353f 6de6 32be ac03 863e
000001e0: 6349 093f ea76 b33f 99c6 173f 9f1b 5bbd
000001f0: 4d15 69be b1a6 89bc 8e9c f1bd 74ee f2be
00000200: 292f 06be 4e7b 8dbe 28b8 1ebf 0409 d03e
00000210: 50d6 d1bd 98dd d03e 8235 c9be e009 0f3f
00000220: 5fb6 053f 6a3b 6ebe 4f54 083e b4c8 f2bd
00000230: d197 2a3f fa13 be3e 6427 e23e f0a4 1f3f
00000240: 127a eb3e 9b28 b8bc b22e 573f e7c8 e93d
00000250: 9108 503f 0e9a 183f 502c f63e bc1f babc
00000260: 5e67 ea3e 5cc3 babe 663a 45be 74dc 05be
00000270: 056e fcbd 061f 44be 5b22 1bbe 7541 fa3d
00000280: 1951 a13e 3183 d43e 9ad4 cd3e 787c ebbe
00000290: c567 203f b604 d0bd 2902 1b3f ed3f 033f
000002a0: 1bc3 1cbe 68f3 5dbf 04c4 283f 4fd6 dbbd
000002b0: afb1 8f3e dd85 0e3f 75ab 0e3f 7048 153f
000002c0: 1815 33bd 5d4b 323f cb0d 853e ec96 3f3e
000002d0: 02cb ee3e 9407 083f ccd7 4dbf e753 223f
000002e0: eaec d43e ca6f 65bf 88be 533f c529 1d3f
000002f0: 9af6 55bf 4902 70be 5251 0c3f 5c49 2ebe
00000300: f899 223f e24b 38bd a29e 46be ed81 133f
00000310: 077c 63be 72a3 6b3f 3640 a43e 0d00 c2bd
00000320: 787d ce3d 1294 103f 20be a63e 2763 863e
00000330: f345 9f3e 2e3b a43e 54c4 4cbd d24c 13bf
00000340: 0aff d73e 1420 9c3e c5b5 d73e acad 7c3e
00000350: 0b20 a73d 84af 48be a9e6 1c3d f673 89be
00000360: 93d8 e73d 9c6c 4d3e c502 483e f548 1cbf
00000370: 7831 2dbe 5b8f 943e 210a f13e ae56 853e
00000380: e724 9b3e b19c 5f3e cd15 323d 9d77 c33e
00000390: 1019 e5bd abef 7c3e 6f67 8fbe 3048 263e
000003a0: c42c 2cbd 443d e23d bd74 c1be 9261 19bd
000003b0: 2cfe fbbe 52cb cdbd 0f27 b93e 1005 2b3f
000003c0: d3e6 5c3e 9e16 853e 8488 473e 629e edb9
000003d0: bb2c d23e 6668 d23e ebd5 2e3f b42b cf3e
000003e0: d800 92be 991d aebe c769 23be ef91 a23e
000003f0: bb7a 8c3f b3e0 f13c beff e33e f1dc 9a3f

l1.bias f4 [8]
0.60015374 0.57928586 0.83562934 0.6104276 0.4510412 0.95323056 1.2539241 0.74631435
00000000: ada3 193f 144c 143f ceeb 553f fc44 1c3f
00000010: dfee e63e eb06 743f 9680 a03f 750e 3f3f

l2.weight f4 [8, 8]
-0.4308082 0.97572577 0.52657473 -0.06540727 -1.4015685 0.49135697 1.5989722 0.5848117
-0.1663746 -0.13235076 -0.2098414 -0.1115718 -0.26048455 -0.28158456 0.12957188 0.026508063
1.3597782 0.50961643 0.40324336 1.5346012 0.2073983 -0.31404725 -0.22721995 2.0323882
-0.513057 2.0827012 0.27246383 0.6465282 -0.43936166 -1.1113853 1.015436 0.32323736
-1.0185393 -0.55631894 1.8783536 -0.030604912 0.016828122 -0.122115605 0.23591058 0.96318185
1.3520265 0.4344573 -0.27017018 1.2222121 0.93066937 -0.7932418 -0.3953615 0.8847684
0.29829377 -0.5511581 0.011115546 -0.6493658 -0.2271897 -0.05734311 1.3550119 0.309566
0.98108417 -0.432045 -0.7907937 0.743118 0.7585272 1.9965146 1.4160256 -0.028634096
00000000: e492 dcbe 2ac9 793f 9acd 063f 3ff4 85bd
00000010: 9966 b3bf 2493 fb3e 1fab cc3f 38b6 153f
00000020: 1a5e 2abe f586 07be aae0 56be c27f e4bd
00000030: 3b5e 85be da2b 90be 7eae 043e 7027 d93c
00000040: 360d ae3f 3976 023f ea75 ce3e d06d c43f
00000050: 3860 543e cdca a0be 59ac 68be a612 0240
00000060: b457 03bf fa4a 0540 6180 8b3e df82 253f
00000070: 03f4 e0be e041 8ebf cff9 813f 5e7f a53e
00000080: 7f5f 82bf eb6a 0ebf e46d f03f 27b7 fabc
00000090: 21db 893c bf17 fabd 8b92 713e 1693 763f
000000a0: 340f ad3f 3071 de3e bf53 8abe 7271 9c3f
000000b0: 5940 6e3f e511 4bbf d36c cabe 2f80 623f
000000c0: f6b9 983e b218 0dbf fb1d 363c d63c 26bf
000000d0: 6ba4 68be 9ce0 6abd 0871 ad3f 6f7f 9e3e
000000e0: 5528 7b3f 0135 ddbe 7571 4abf fb3c 3e3f
000000f0: d72e 423f ca8d ff3f 5440 b53f 0d92 eabc

l2.bias f4 [8]
0.6243534 -0.34612554 -0.38262606 -0.19001824 0.88688904 0.1268047 0.17512798 0.6216676
00000000: a0d5 1f3f 5e37 b1be 90e7 c3be 2494 42be
00000010: 290b 633f 17d9 013e c054 333e 9c25 1f3f

l3.weight f4 [10, 8]
0.7524741 -0.18676051 -1.8498843 -0.39081562 -1.6120126 -0.65807354 0.44396627 0.26263848
-1.755896 -0.27454618 0.5664369 -1.5863231 -1.5847579 0.87435204 -0.5818594 0.11451251
0.48144737 -0.060682774 -2.1972039 -2.1789138 1.1115795 -0.5006358 0.13182998 -0.0026843117
0.3722419 0.015375793 0.386158 -1.3359326 0.8440854 -0.6893562 -1.6102436 -1.4134742
0.077268355 -0.0021579266 0.09113878 0.6225625 0.28289512 0.03006028 -1.4479383 -2.01346
0.50343907 0.17877331 -0.52713 0.44728848 0.07775849 -0.7915969 0.52930206 -1.0862131
-0.29972103 0.13345754 0.3033599 -1.5422459 -0.35042268 -0.13063674 0.5381297 0.3128799
-1.0440363 0.22053471 -1.2406942 -0.9913381 -0.6974298 -0.3311188 -2.036294 1.0754484
-1.1578004 -0.004115641 0.31543833 0.3040839 0.22755429 0.63626987 -1.7558254 -0.6397842
0.091197334 0.14636502 0.10303798 0.5233332 -1.3575349 -0.031809736 -1.429606 -0.043345183
00000000: 25a2 403f 263e 3fbe 02c9 ecbf fc18 c8be
00000010: 6e56 cebf 8277 28bf 8c4f e33e 8d78 863e
00000020: 33c1 e0bf 5191 8cbe 0202 113f a30c cbbf
00000030: 59d9 cabf 89d5 5f3f bdf4 14bf 8985 ea3d
00000040: 4580 f63e 808e 78bd fd9e 0cc0 5373 0bc0
00000050: 3d48 8e3f ab29 00bf 70fe 063e 47eb 2fbb
00000060: 7e96 be3e c0ea 7b3c 80b6 c53e d7ff aabf
00000070: fb15 583f a679 30bf 761c cebf b9ec b4bf
00000080: df3e 9e3d 006c 0dbb f8a6 ba3d 4260 1f3f
00000090: a1d7 903e fa40 f63c 0b56 b9bf 87dc 00c0
000000a0: 62e1 003f 5a10 373e fef1 06bf ff02 e53e
000000b0: d83f 9f3d 18a6 4abf 5780 073f 0809 8bbf
000000c0: 0975 99be 18a9 083e fd51 9b3e 5068 c5bf
000000d0: 9a6a b3be a3c5 05be dec2 093f cb31 a03e
000000e0: fba2 85bf dad3 613e 11cf 9ebf 55c8 7dbf
000000f0: c28a 32bf 6788 a9be a452 02c0 4ba8 893f
00000100: ce32 94bf 80dc 86bb 2281 a13e e3b0 9b3e
00000110: fe03 693e 95e2 223f e3be e0bf e6c8 23bf
00000120: abc5 ba3d b6e0 153e 9405 d33d 2af9 053f
00000130: b4c3 adbf ed4a 02bd 54fd b6bf b88a 31bd

l3.bias f4 [10]
0.11471398 0.23707366 0.41577095 0.18672514 -0.54736453 0.1604675 -0.34525678 0.56309205
-0.15450785 -0.36075267
00000000: 2aef ea3d 70c3 723e eedf d43e e034 3f3e
00000010: 1520 0cbf 9851 243e 7fc5 b0be cd26 103f
00000020: 4e37 1ebe 93b4 b8be
